…
#the BRATS 2021 task 1 brain tumour segmentation dataset
#https://www.kaggle.com/datasets/dschettler8845/brats-2021-task1/code?datasetId=1541666&sortBy=voteCount
```
output of the above

```
train target: (1126, 240, 240, 1)                 test target: (62, 240, 240, 1)
train x(62, 240, 240, 4)                  test x: (62, 240, 240, 4)
Model: "functional_3"
┏━━━━━━━━━━━━━━━━━━━━━━━━━━━━━━━━━┳━━━━━━━━━━━━━━━━━━━━━━━━┳━━━━━━━━━━━━━━━┓
┃ Layer (type)                    ┃ Output Shape           ┃       Param # ┃
┡━━━━━━━━━━━━━━━━━━━━━━━━━━━━━━━━━╇━━━━━━━━━━━━━━━━━━━━━━━━╇━━━━━━━━━━━━━━━┩
│ input_layer_1 (InputLayer)      │ (None, 240, 240, 4)    │             0 │
├─────────────────────────────────┼────────────────────────┼───────────────┤
│ conv2d_7 (Conv2D)               │ (None, 120, 120, 64)   │         2,368 │
├─────────────────────────────────┼────────────────────────┼───────────────┤
│ conv2d_8 (Conv2D)               │ (None, 120, 120, 64)   │        36,928 │
├─────────────────────────────────┼────────────────────────┼───────────────┤
│ conv2d_9 (Conv2D)               │ (None, 60, 60, 128)    │        73,856 │
├─────────────────────────────────┼────────────────────────┼───────────────┤
│ conv2d_10 (Conv2D)              │ (None, 60, 60, 128)    │       147,584 │
├─────────────────────────────────┼────────────────────────┼───────────────┤
│ conv2d_11 (Conv2D)              │ (None, 30, 30, 256)    │       295,168 │
├─────────────────────────────────┼────────────────────────┼───────────────┤
│ conv2d_12 (Conv2D)              │ (None, 30, 30, 256)    │       590,080 │
├─────────────────────────────────┼────────────────────────┼───────────────┤
│ conv2d_transpose_6              │ (None, 30, 30, 256)    │       590,080 │
│ (Conv2DTranspose)               │                        │               │
├─────────────────────────────────┼────────────────────────┼───────────────┤
│ conv2d_transpose_7              │ (None, 60, 60, 256)    │       590,080 │
│ (Conv2DTranspose)               │                        │               │
├─────────────────────────────────┼────────────────────────┼───────────────┤
│ conv2d_transpose_8              │ (None, 60, 60, 128)    │       295,040 │
│ (Conv2DTranspose)               │                        │               │
├─────────────────────────────────┼────────────────────────┼───────────────┤
│ conv2d_transpose_9              │ (None, 120, 120, 128)  │       147,584 │
│ (Conv2DTranspose)               │                        │               │
├─────────────────────────────────┼────────────────────────┼───────────────┤
│ conv2d_transpose_10             │ (None, 120, 120, 64)   │        73,792 │
│ (Conv2DTranspose)               │                        │               │
├─────────────────────────────────┼────────────────────────┼───────────────┤
│ conv2d_transpose_11             │ (None, 240, 240, 64)   │        36,928 │
│ (Conv2DTranspose)               │                        │               │
├─────────────────────────────────┼────────────────────────┼───────────────┤
│ conv2d_13 (Conv2D)              │ (None, 240, 240, 4)    │         2,308 │
└─────────────────────────────────┴────────────────────────┴───────────────┘
 Total params: 2,881,796 (10.99 MB)
 Trainable params: 2,881,796 (10.99 MB)
 Non-trainable params: 0 (0.00 B)
```








when compiling and training:

```
model.compile(optimizer="Adam", loss="sparse_categorical_crossentropy")

callbacks = [
    kr.callbacks.ModelCheckpoint("help.keras",
                                    save_best_only=True)
…
